ToyCNN/cifar_net.pth (torch, 251604 bytes, 10 tensors)

conv1.weight f4 [6, 3, 5, 5]
00000000: e0eb f7bd 8f69 c1be 6aa3 7fbe 4f48 b1bd
00000010: b563 72bd 7371 c9be 3570 98bd af8a 913d
00000020: 43ea d2bd 7801 8ebe 73e7 debe 5cb0 563e
00000030: f6a1 d43e 960d 9bbd c862 d7be dd5a d43c
00000040: dd52 85bd 71a1 82be 2cbb e1bc e039 873d
00000050: d0f2 be3e a9dd 883d 8fbf abbe 8304 bc3d
00000060: c774 973e affa 9b3d 0040 a7bd 4c09 963d
00000070: 1239 113e e3b5 ca3d e56d 63be bf7f 443e
00000080: e597 983e 8afd 3a3e f078 7d3d bd37 8ebe
00000090: 9d34 f83e 55bb 283f f7d3 893d d8d3 81be
000000a0: e643 b93d 6c5f 5e3e 9b41 14be d2ab 36bd
000000b0: 01d3 453e 2405 e33e d14b f9bd 4373 c3be
000000c0: 2ac2 c43d 8d8f c43e 5f64 c23d 305c a8be
000000d0: 45b7 16be dfac 713d 65ca b1bd befd bfbd
000000e0: 84bf bcbd 75ab 083d 100b cbbc 8db9 77be
000000f0: 3e01 87be 5ab3 583e bcc3 ae3e 1aab 6ebd
00000100: ccbc d9be 983a 21bd b34b 9f3d b606 5bbe
00000110: 47e9 7dbd 56eb e4bc 2d88 993e a78d 4cbe
00000120: 1e5a eebe b65e 4e39 61c1 d23d 9833 bcbc
00000130: b351 453e 9c71 4b3e 34c1 e73e 6817 3d3e
00000140: 0ffc 60be 2ae4 4ebe b93e 64be 253b 0c3e
00000150: fd95 0a3e cdd3 1bbe 2902 aebe b3af 05bf
00000160: a67d cebe d471 7fbb cb10 f8bd 9f1a cdbd
00000170: 7f58 bebd 9b24 90be 57ae 22be 608f edbd
00000180: 9cae 2a3e 8186 103e 7bd8 bf3d ad83 a2bd
00000190: 787d 88be c112 f1bd cc5d d13c 0f45 0a3e
000001a0: bd80 6a3d b307 2dbe 3da6 c1be 932e 92be
000001b0: c539 acbd be21 1bbc 7f31 84bd c559 91be
000001c0: 9455 abbe 5db6 59be 0847 3fbe a19f 2e3d
000001d0: d2ae 8f3c 07f2 993c 6fbe 4abe 7a58 6ebe
000001e0: dd6e 2e3e 21f6 803e 7541 853e 5266 20bc
000001f0: 2cc9 ba3c a284 40be 2ee3 3ebd 7ca3 0e3d
00000200: 6249 1c3e 4424 e7bc d2ad 6e3d 7368 3cbe
00000210: ad79 12bd c8a0 24bd e98d 943e 2322 093e
00000220: eb33 4cbd ae02 adbe c478 e9bd cfbf b73d
00000230: e07f 2f3c d7f6 103e c765 623e dbbd c5bd
00000240: 98d4 da3c 7779 ab3e cd59 9c3e 7523 ad3e
00000250: 6c86 983e 2bfe cf3d c1ea b03e bca3 f83e
00000260: 197f bc3e c3a6 de3e 1605 733e 3b73 763e
00000270: db0f c53e 12f9 ec3e c4d9 ee3e 730f 313e
00000280: 1dce 5cbe 2932 7bbd cab5 dabd d1f3 8cbe
00000290: 7d80 2abe 4a37 83be e39e 70be 8403 05be
000002a0: 01e9 50bd 3b9c 9bbc 0ce4 c7be 7139 82bd
000002b0: c3a7 21be d038 58be 0bad b7bd 84cf 0fbc
000002c0: 4f06 233e ff10 563e e587 ef3b 72ba b63c
000002d0: 962d 103d b627 693e 7ac8 e23d 07c8 4a3d
000002e0: c8e1 85bd 0809 bdbe dfae 89be 9421 f0be
000002f0: 683f 0cbf 719a 8dbe 9627 9bbd 1f9a 20be
00000300: 459f 89be 539c 14bd 1f49 bc3c 8f43 40bd
00000310: 5c97 263e b632 013e 721a cebd 6ca4 b6bd
00000320: 8f6a 033c 7bb6 8739 de86 143e caf2 393d
00000330: 8cef dfbd 9b37 5f3c d15d e73d ff27 3d3c
00000340: 733c a6b9 a831 52bb 6a76 5ebe e133 9dbe
00000350: 125b 7ebe d418 a4be 5320 81be 0789 c73c
00000360: 5380 4b3e d464 993d 116d 823e 37fa 313e
00000370: 7cbf 273e d1e5 bf3e bc2c 853e 5b20 843e
00000380: 468f 0c3e 9f71 51be b36e 80be 96ea 92be
00000390: 1312 8cbe 258e 30be 7e94 b9be 5d36 70be
000003a0: f299 8ebe 1abf 05be afd0 babe 01bb 1ebe
000003b0: ac9e 0abe 8354 efbd 9a8e e5bd 1f00 09be
000003c0: c2d2 d3bd 3540 4dbd 97bd 60bd a5bf dfbd
000003d0: 0069 c4bd 56a2 a8bd a77c 3cbe 4556 9cbd
000003e0: 44c5 5abb 855e 58be 2a1e 06bd 5348 b53d
000003f0: aef6 873c 0cb4 af3d 084d b53d 5379 c0bd
-0.121055365 -0.37775847 -0.24964681 -0.0865637 -0.05917712 -0.39344367 -0.07443277 0.0710653
-0.10298588 -0.27735496 -0.43535957 0.20965713 0.41529816 -0.07570951 -0.42067552 0.025922233
-0.065099455 -0.25513795 -0.02755507 0.06602836 0.37294626 0.06682903 -0.33544585 0.09180548
0.29581282 0.076161735 -0.08166504 0.07325992 0.14181927 0.098979734 -0.2220989 0.19189356
0.29803386 0.1826078 0.061882913 -0.277769 0.4847764 0.65910846 0.06729882 -0.25356936
0.09046154 0.21716088 -0.14478152 -0.044597454 0.19318773 0.4433986 -0.12172664 -0.38173875
0.09607346 0.3839077 0.094918005 -0.32882833 -0.1471835 0.059002753 -0.08681182 -0.09374569
-0.09216216 0.03336664 -0.024785548 -0.24191876 -0.26368135 0.21162167 0.34133708 -0.058268644
-0.42526853 -0.03936252 0.0777811 -0.21389279 -0.06199005 -0.027944248 0.29986706 -0.19975911
-0.4655313 0.00019680973 0.1029079 -0.02297382 0.19269447 0.19867557 0.4526459 0.1846596
-0.21971153 -0.20204225 -0.22289552 0.13694437 0.13533778 -0.15217514 -0.33986023 -0.5222122
-0.40330237 -0.003897776 -0.12112578 -0.10014843 -0.09294223 -0.28152928 -0.15886818 -0.11599612
0.1666817 0.14113809 0.09367462 -0.079352714 -0.26658225 -0.11771155 0.025557421 0.13502906
0.05725168 -0.16897468 -0.37822142 -0.28551158 -0.08409456 -0.009468494 -0.06454753 -0.283888
-0.33463728 -0.21260972 -0.1867944 0.042632703 0.017539416 0.018792165 -0.19799207 -0.23275939
0.17034478 0.2518778 0.26026502 -0.00979002 0.022801004 -0.18800595 -0.046603374 0.03482388
0.15262368 -0.028215535 0.058271237 -0.18399219 -0.03576057 -0.040192395 0.2901452 0.13391928
-0.0498542 -0.33791107 -0.11399987 0.089721315 0.01071164 0.14156662 0.22109137 -0.09655353
0.0267127 0.33491108 0.30537263 0.33816114 0.29790056 0.101559006 0.34554103 0.4856242
0.36815718 0.43486604 0.23732409 0.24067394 0.3848866 0.46283776 0.46650517 0.1729105
-0.21563001 -0.061327133 -0.10679205 -0.27529767 -0.16650577 -0.2562812 -0.2349811 -0.12989622
-0.05100346 -0.018995395 -0.39041173 -0.06358612 -0.15786652 -0.21115422 -0.08968552 -0.008777503
0.15920375 0.20904921 0.007309901 0.0223057 0.035199724 0.22769055 0.11073394 0.049507167
-0.06537205 -0.36920953 -0.2689123 -0.46900618 -0.5478425 -0.27656892 -0.0757591 -0.15683793
-0.26879326 -0.036281895 0.022984086 -0.04693943 0.16268677 0.12617001 -0.10063638 -0.0891808
0.008021011 0.00025885165 0.14504573 0.045397557 -0.10934362 0.013624097 0.11297191 0.01154518
-0.00031707025 -0.0032073054 -0.21724859 -0.30703643 -0.24839428 -0.32050192 -0.25219974 0.024357332
0.1987317 0.074899346 0.25473836 0.17380606 0.16381639 0.37480024 0.26010692 0.25805935
0.1372653 -0.204535 -0.25084457 -0.286946 -0.2735754 -0.17241724 -0.36246103 -0.23458238
-0.27851826 -0.1306118 -0.36487338 -0.15501024 -0.13537091 -0.11686041 -0.1120884 -0.13378952
-0.10342933 -0.05011006 -0.054868307 -0.10925225 -0.0959034 -0.08234088 -0.18406926 -0.07633642
-0.003338174 -0.21129806 -0.03274361 0.088516854 0.016597118 0.08579263 0.08852583 -0.09398141

conv1.bias f4 [6]
00000000: ab3c fb3d 3582 19bf fa1a cabe 25f8 a83e
00000010: 090f 35be e2a3 b8bd
0.12267431 -0.59964305 -0.39473706 0.3300182 -0.17681517 -0.09015633

conv2.weight f4 [16, 6, 5, 5]
00000000: e61c 153c e73c a73c 0690 463c 97a6 ef3a
00000010: 5ca8 c53d a9b9 e13d e456 943d ed59 e53d
00000020: b928 98bb 3f52 3f3d e0bd 533e 7f08 1e3e
00000030: c684 1b3e 5ae5 313e da4a dc3d ca62 5c3d
00000040: a618 19bd a49c ad3b 4cad ebbc 7fcc 0f3d
00000050: 57c9 17be 0c86 53be 289a 82be 0db7 43be
00000060: b979 53be f93d 0b3d 3960 1dbc fc7f 03bb
00000070: f4a5 533d 0606 d93d f115 89bd eef8 3cba
00000080: bb6e 17bd d18f e5bd 694b a0bb 27d2 173e
00000090: 77b6 ed3d 6491 7c3d cff3 6f3e dbe6 113e
000000a0: 7c1d 25bd 1265 02be 34ce c7bd 69c1 33bd
000000b0: ff75 babd 9f46 d13d 56c6 82bd f0e9 793c
000000c0: 6a11 aebd 03c6 08be d65d 663e dcb7 0a3e
000000d0: 8f0a 3d3d 8ab9 0f3d 988d 2c3e 3bd3 0e3e
000000e0: 7003 eb3d 1087 cb3d ee43 db3d 167e be3d
000000f0: 5494 033e 9751 c13d 0eaa 353e 0a54 393e
00000100: 7ab3 3d3e effe 103e 16b4 0fbe 76dd d9bd
00000110: 7562 a33c b55c 01bd 8c04 c83e 6e2c d93e
00000120: d816 8d3e e2aa 8b3e b24e 9e3e f94a 5cbc
00000130: 2e10 a73c bf3a 603d bb3b 493b 4b95 073e
00000140: 722b a0bd 1f03 18bd d8a1 bfbc fc2b 4bbc
00000150: 6533 813d 0189 36be cdd9 39be 151a 33be
00000160: 3eaf 69be d024 82bd 3c06 623d e121 3b3e
00000170: f165 333e 4264 7d3c 312a 893d 7b8a ccbb
00000180: 39e0 51bd c5d0 d7bd 5512 163c 03a6 3a3c
00000190: 28c1 193d a4c1 4f3d 99de 573c e3cf 943d
000001a0: a355 b13c 1869 a7bd 9bcb f1bd 98d7 4bbe
000001b0: 2c3e 803d d962 06bd 218b 10be 58e5 f5bd
000001c0: d58b 0abe 260d a8bd ce1d 30be 0770 35be
000001d0: 71c3 19be 7d5a 67be 1ca9 35be 70c6 7bbe
000001e0: f352 cdbd 8b48 12be a35d 4abe b26e 5cbe
000001f0: c761 c3bd 6ba0 be3c 717a 81bc a435 f23d
00000200: 41a4 033e 05b8 963d 47d1 e9bd f2d7 0abe
00000210: 2a9f 01be c518 17be 866b f9bd 6850 bcbd
00000220: d918 31be c259 02be 1ca5 24be 244c 3bbe
00000230: c72f 0fbe b84a 23be 7e31 30be a1c7 e2bd
00000240: 685f c1bd 5453 3abd ba94 88bd 6446 adbd
00000250: 663a a4bd 2981 30bd 5b0e 383d 69c5 61bc
00000260: 076e 16be 7547 71bd 784e 1abd 367a 223e
00000270: 58e1 823e f19b e53d a2e8 c33d ee31 783d
00000280: 2dd2 2c3e ee19 033e 6adb 173e 4833 a93c
00000290: c831 093e 29cc fe3c a8f1 d2bd 61f3 29bd
000002a0: 1e4e 0cbe ce83 7fbb f933 06be 30e7 1dbe
000002b0: c768 efbd 27f2 3fbe 2215 b3bd 3e77 59bd
000002c0: db70 793d f97d 9d3d 4767 28bd 6fb6 98bc
000002d0: 8674 583e 5d44 983e ddf2 963e bc2b f43d
000002e0: dfd0 8d3d 6d60 3b3d 2516 60bc 42ec e43b
000002f0: b010 003e 6826 d6bd af1b 4bbe e3e0 46be
00000300: 5921 69bc fa27 14be 67ba 7bbd c117 0ebe
00000310: d1f7 e1bd e4ac a7bd d3fb c6bd 3efb adbc
00000320: 148e 8bbd deb1 5f3d 84b2 ccbd 23d0 2abe
00000330: 67c9 01be 1d8f 9d3b 6f0c f43c 06d0 25bd
00000340: 7afa 0ebe 0f5b fcbd 2471 e4bd 3dec a2bd
00000350: 2aae eebc e07a 23be 800b bfbd 96ec 16bd
00000360: a5fc f33c fe81 13bd 97f1 cfbd dcec ccbd
00000370: e584 9c3c 0d86 873d 5421 91bd b293 873d
00000380: 89c6 7dbd 51bb 77bd 9c65 1f3d 95b9 3db9
00000390: 9ea6 96bd c1a8 4bbd f655 7abd 042c d33c
000003a0: e7ad 95bc 377e ac3c 9156 05bd 2dd5 06bd
000003b0: a87f cbbc 6d0d fcbc c2bb cc3d 1ebe 1cbc
000003c0: 3b4e febc e239 8a3d 086e 5e3d c0b7 2abd
000003d0: 0f91 773d 697f a3bb c5ce e5bd a48e 71bd
000003e0: 61d3 e1bd ba28 9cbc 5ccf 5bbe 164d a6be
000003f0: 39e6 91be 89be 1cbe 5655 ffbc 55d2 d53c
0.009101128 0.020414783 0.012119299 0.00182839 0.096512526 0.1102174 0.072431356 0.111987926
-0.0046435264 0.046709295 0.206779 0.15432929 0.15187368 0.17372647 0.10756464 0.05380515
-0.037377022 0.005298214 -0.028769158 0.035107132 -0.14822899 -0.20656604 -0.25508237 -0.19112797
-0.20651902 0.03399465 -0.009605461 -0.0020065298 0.051671937 0.10596852 -0.06693638 -0.0007208724
-0.036970835 -0.112090714 -0.004891802 0.1482626 0.11607068 0.061662093 0.2343285 0.1424822
-0.04031132 -0.12733868 -0.09756127 -0.043885622 -0.09104537 0.10218548 -0.06385486 0.015253529
-0.08499415 -0.13356785 0.22496733 0.135467 0.046152648 0.035089053 0.16850889 0.13947766
0.11475265 0.099378705 0.10706316 0.09301393 0.12849551 0.0943939 0.17740652 0.18098465
0.18525496 0.1415975 -0.14033541 -0.106379434 0.019944409 -0.031582553 0.3906597 0.4241671
0.2755649 0.2727881 0.30919415 -0.013445609 0.020393457 0.054743525 0.0030705768 0.13240544
-0.078207865 -0.03711235 -0.023392603 -0.012400623 0.06308631 -0.178257 -0.1814949 -0.17490418
-0.22820756 -0.06354678 0.055181727 0.18274643 0.17519356 0.015465798 0.066975005 -0.006242094
-0.051239226 -0.105378665 0.009159644 0.011392119 0.037537724 0.05072178 0.01317563 0.07266214
0.02164728 -0.08174342 -0.11806413 -0.19906461 0.06261858 -0.032809112 -0.14115573 -0.120066345
-0.13529904 -0.08205633 -0.1719887 -0.17718516 -0.15015961 -0.22593112 -0.17740291 -0.24587417
-0.10025587 -0.14285485 -0.19762282 -0.21526602 -0.09540134 0.023269853 -0.015805455 0.118266374
0.12855627 0.07359318 -0.114168696 -0.13558939 -0.12658373 -0.14755543 -0.121787116 -0.09195024
-0.17294635 -0.12729552 -0.16078609 -0.18290764 -0.1398307 -0.15946472 -0.1720638 -0.110732324
-0.094420254 -0.045489624 -0.06668992 -0.084606916 -0.08018951 -0.043091927 0.044935565 -0.013779976
-0.1469041 -0.058906037 -0.03767249 0.15866932 0.2556255 0.11211384 0.095658556 0.06059449
0.1687705 0.1280286 0.14829794 0.020654336 0.13397896 0.03110321 -0.102999985 -0.04149187
-0.13701674 -0.0038988474 -0.13105763 -0.15420222 -0.116899066 -0.18744718 -0.08744265 -0.053092234
0.060898643 0.07690043 -0.041114118 -0.018641679 0.211382 0.29739657 0.29482165 0.11922404
0.069246046 0.045746256 -0.013677155 0.006986172 0.12506366 -0.10456544 -0.19834779 -0.19421725
-0.014229142 -0.14468375 -0.061457064 -0.13876249 -0.11033595 -0.08187273 -0.097160004 -0.021237966
-0.068142086 0.054612987 -0.09994987 -0.1668096 -0.12674485 0.00480832 0.029791085 -0.04048159
-0.13962737 -0.123220555 -0.11154392 -0.07955215 -0.029135782 -0.15964842 -0.09328365 -0.03684672
0.029783556 -0.036012642 -0.101535015 -0.10006115 0.019106338 0.06617365 -0.07086435 0.066199675
-0.061956916 -0.060481373 0.03891526 -0.0001809358 -0.073559985 -0.049721483 -0.061117135 0.025777824
-0.0182714 0.021056278 -0.03255326 -0.032918144 -0.024841145 -0.03076812 0.099967495 -0.009566812
-0.031043163 0.067493215 0.054304153 -0.041679144 0.060441073 -0.0049895537 -0.11221079 -0.058973923
-0.110266455 -0.019062389 -0.2146582 -0.32480687 -0.28495958 -0.15307058 -0.031168621 0.02610127

conv2.bias f4 [16]
00000000: 163a 263d 0fe2 373e 610e c2be 43e9 95be
00000010: 6f7f ff3e ccaf ddbe 3f39 a4be aa97 023f
00000020: 678f abbe e3f4 623e 7f49 eabd c826 053f
00000030: 244a f8bc 10ca 6a3d 0e61 313e bb27 11be
0.04058274 0.17957328 -0.37901595 -0.29279527 0.49901912 -0.43298185 -0.32074925 0.5101267
-0.33507845 0.2216373 -0.114397995 0.520123 -0.03030879 0.057321608 0.1732218 -0.14175312

fc1.weight f4 [120, 400]
00000000: 2221 dbbc 1d72 c0bd 0784 b9bd 74e3 ccbd
00000010: d9a0 76bc bffc c0bc 6a51 fbbc 7432 8cbd
00000020: 2aba c0bd f528 403c 6651 743d e0fb 973b
00000030: a023 243c 6eb8 15bd c44c 8abc f9c7 883d
00000040: ac93 2d3c 0994 173d 5aea 313d d2b7 48bc
00000050: 3d92 d93d 16be 0f3d 389b fd3c edfd 963c
00000060: 2026 883c 738d 4b3c 4fcf 563c 40c7 283b
00000070: c497 bb3c bb64 fa3c 1fce aa3d ffb2 123d
00000080: c7f5 9f3c b101 193d be62 0ebc 4cc6 003c
00000090: 3768 d23c 82ff 13bd d9c4 c3bc 438e d03c
000000a0: 3d23 243d a545 033b 1b73 713d 262b d23d
000000b0: e73b 943b 228d c53d a170 a03c 0337 4f3c
000000c0: 555e d23d b05d dc3c f021 a63d 7d96 1f3c
000000d0: 2711 bd3d 57a7 473d f8a1 993d 52e5 8dbb
000000e0: 0f07 99bc 3191 4abc 0434 e43c d905 403d
000000f0: eca2 02bd edf6 e03c 4d55 083b 90f1 29ba
00000100: 4b72 943b a655 d53c d314 9cbc 256f a2bc
00000110: 4c0d 0c3d 9159 25bb da43 5d3d 921a 2d3d
00000120: ac27 c03b 9cc5 d0bc fce9 f9bc 8425 24bc
00000130: 493c d4bc 75b3 823d b831 823d e1a4 08bc
00000140: 5c9a e63c d162 813d fe05 ac3d 98fd 913d
00000150: acdc 853d 190b 653d ca4d 983d 64f7 893d
00000160: 42ce a43d 2857 733d 1db4 7f3d 7d6e 193d
00000170: ec76 a6bc 899b 473d c16e 40bd 3c31 8f3d
00000180: 35e2 0fbd 2a5c 5c3c 1f1e 843d 8db2 acbd
00000190: 0550 5bbc 0e81 04bd 8d30 4d3c 5d88 f03c
000001a0: 81ef 283d d320 283b 9d79 1dbd 878f 19bd
000001b0: 0ce6 bdbc 2ada 213c 9980 58bc b43c d1bc
000001c0: 967b cbbb 7777 48bc 0d63 09bd ccc4 aa3c
000001d0: 6cd6 483d 1302 1d3d 68a7 70bc 0522 0ebc
000001e0: 85c9 803d d4e6 8c3d c960 143b ec6c f63c
000001f0: 9b35 c43d a399 ec3d 1b8d a13d fc35 123d
00000200: 8ea8 a83d 040a ccbb 010d 12bc 6e75 643d
00000210: da5c 083d 5bdd 67bd a82b d73c d4b8 bfbd
00000220: de49 7d3d 8fa1 0cbc 96cc b43c 927c 01bc
00000230: 958d 08be c32a 67bd f578 0ebc bb5f 0c3c
00000240: be63 e73c b73e 58be 1101 c7bd 26ca 36bd
00000250: 1d7e e33b 65e3 4f3d 56c7 073d fe52 59bb
00000260: 793a 82bc a694 46bc 318d 063d 3032 f63b
00000270: eec6 4c3c 27ec abba c630 38bd 3e5a 1f3d
00000280: 22c5 afbc b7d4 00bd 81eb 07bc 33d1 f3bc
00000290: bab4 743c 4a86 d33c 1f14 5f3d 7c0c 633d
000002a0: 7263 753d 9741 863d 04fd 71bd ab69 20bd
000002b0: 7f49 3c3d 2e16 a23c aac0 003d 9d60 32bd
000002c0: 87ff 833d e802 3a3d 7722 09bc 7cf1 41bc
000002d0: 45a3 ddbc 7192 25bc 4b5d 233d a081 653c
000002e0: ee10 5d3c 4183 c53b 6172 75bc 2320 b8bd
000002f0: 5db7 27bb ce5d 043d d1c0 193d 69fa 813c
00000300: e117 aabd 2e1c 87bc 4c30 4a3d 8278 92bd
00000310: 0e18 bf3c 57f7 52bd fbd0 5f3d d007 fe3c
00000320: f26f c5bb ede5 323d a275 b2bb 830c 8e3c
00000330: 6f1a a03c 557e 133d 176e 0f3d 3196 cc3b
00000340: 6577 b5bb df3b 963d a01c 99bd 2933 37bd
00000350: 7f67 9cbc a220 8bbc 366b 033d ec94 cfbc
00000360: 3232 08ba 4c86 133c 280a 29bd 46a8 35bd
00000370: 797e d83b 6d2b d4bd 29bb d0bc 4aef 99bc
00000380: 4d12 05bc ebbe 55bd 95da c93c 984f 683d
00000390: ee18 363d 1dd0 86bc c64c f23c 042c c93b
000003a0: 3070 4c3c b893 683c a710 aa3a 880b ac3c
000003b0: 04df 9cbc c428 b3bb 4312 743c 099c df3c
000003c0: b006 373d d4d8 1cbc 6904 96bd a4cc dfbb
000003d0: 8805 763d c5fb a43d 7596 bbbc e9ea aabd
000003e0: 6cbe 8d3c b14b 61bb 74cb 33bc 5f28 1ebd
000003f0: d0d2 843d 4699 df3c 8ef1 81ba 2549 7cbd
-0.026749197 -0.093967654 -0.09058385 -0.10004321 -0.0150529975 -0.023558019 -0.03067847 -0.06845561
-0.09410508 0.011728515 0.05964794 0.00463818 0.010018259 -0.03655284 -0.016882308 0.06678767
0.01059429 0.03700641 0.043436386 -0.012250857 0.10623596 0.03509339 0.030957803 0.018431628
0.016619742 0.012423861 0.01311095 0.0025753528 0.022899516 0.03056561 0.08340096 0.035815235
0.019526375 0.03735513 -0.008690534 0.007859778 0.02568446 -0.036132343 -0.023897575 0.02545846
0.04007267 0.0020030525 0.058947664 0.10262136 0.0045237425 0.096460596 0.019584956 0.012647393
0.10271899 0.026900142 0.08111942 0.009740469 0.09231787 0.048743572 0.07501596 -0.0043303156
-0.018680124 -0.012363718 0.027856834 0.046880577 -0.031893656 0.027461493 0.0020802796 -0.0006482834
0.0045302263 0.026041817 -0.019052899 -0.019828388 0.03419237 -0.0025230388 0.054019786 0.042261668
0.0058641043 -0.025484852 -0.03050708 -0.01001871 -0.025907652 0.06381885 0.06357139 -0.008340091
0.028149776 0.06317676 0.083995804 0.07128447 0.065362304 0.055918787 0.07436712 0.06736639
0.08047153 0.05940929 0.06242763 0.037458885 -0.020320378 0.048732314 -0.046980623 0.069918126
-0.035127837 0.013449708 0.06451058 -0.08432493 -0.013385777 -0.03234964 0.012523782 0.029361898
0.041244034 0.002565433 -0.038446058 -0.037490394 -0.023180984 0.0098786745 -0.013214254 -0.02554164
-0.006209801 -0.012235514 -0.033541728 0.020845793 0.049032614 0.038332056 -0.01468835 -0.008675103
0.06288437 0.068799645 0.0022640696 0.030081235 0.09580537 0.115527414 0.07888242 0.035696015
0.08235274 -0.00622678 -0.008914233 0.055776052 0.033291675 -0.056607585 0.026265934 -0.09361425
0.061838023 -0.00858344 0.02207021 -0.007903235 -0.1333526 -0.056437265 -0.008695831 0.008567746
0.028245803 -0.21117674 -0.09717 -0.044626378 0.006942524 0.05075397 0.033149086 -0.003316104
-0.015897023 -0.0121204015 0.032849494 0.007513307 0.0124986 -0.0013116644 -0.04496839 0.03890442
-0.021456305 -0.03145286 -0.008295895 -0.02976284 0.014935667 0.02582087 0.05446255 0.055431828
0.05990929 0.06555479 -0.059079185 -0.039163273 0.04596853 0.019785967 0.03143374 -0.04354917
0.06445222 0.045412928 -0.008370033 -0.0118373595 -0.027055392 -0.010105715 0.039883893 0.014007956
0.013492806 0.0060276096 -0.014980883 -0.089905046 -0.002559147 0.03231602 0.0375374 0.015866475
-0.08305336 -0.01649293 0.049362466 -0.07151891 0.0233269 -0.051505413 0.05464266 0.031009585
-0.006025308 0.043676306 -0.005446152 0.01733995 0.019543855 0.03600915 0.0350171 0.00624349
-0.0055379146 0.07335638 -0.07476163 -0.044726525 -0.01909232 -0.016983334 0.032084666 -0.025339566
-0.0005195468 0.009004187 -0.04126945 -0.04434993 0.0066068736 -0.10359845 -0.02547987 -0.01879086
-0.008122039 -0.052184027 0.02464036 0.05671653 0.04445737 -0.016456658 0.029577624 0.0061392803
0.012477919 0.014195375 0.0012974933 0.021001592 -0.01914931 -0.005467506 0.014896932 0.027296083
0.044684112 -0.00957318 -0.0732506 -0.006829815 0.06006387 0.08055834 -0.022898892 -0.08345587
0.017302714 -0.003437739 -0.0109738 -0.03861272 0.06485522 0.027294766 -0.0009913908 -0.061593194

fc1.bias f4 [120]
00000000: 46b1 d93b 7cff 12bd e8ee 303d 84bf 853e
00000010: fdca 3b3e 9a8c 363d 8a04 24bd 028c dc3c
00000020: 103a a83c a226 03bd 0ada efbc e356 203e
00000030: 7fb3 d93b 52a3 7d3d 2301 193d 0f21 853d
00000040: 4d4a d4bc 49a2 95bc 649b 71bd 49d4 203d
00000050: c37f 343d 5e68 f5bd dccd bebd 1505 763d
00000060: 1b5f 673e 94bc f7bc 6c2e 013e e25e 433e
00000070: f699 1b3d 1854 b23d 2772 f0bc 6ced 073e
00000080: 8100 ce3d d816 9f3c c829 8ebb 8050 86bc
00000090: f14a 043e 6c33 0f3d 1224 0d3e 75ea c63c
000000a0: bd2f b6bd e549 823d 6836 babc a214 b83c
000000b0: 4a49 c83d aaff 543d 3830 043e 0291 953d
000000c0: 1dca 783d 36d1 47bd 934d 583d 1d74 9d3d
000000d0: 32a9 de3c 7fd8 c23d fc6f e8bd bc85 bd3d
000000e0: 39c5 ffbd aff8 513c c1d4 1f3e 6baf 903d
000000f0: 2450 5f3e cb38 54be 6f4e b9bd 9466 093e
00000100: 0ecb 323d 2785 2dbc b851 e03d db9e 4a3d
00000110: 23a3 babd 5052 483e 8166 ba3c 57f0 0ebd
00000120: cc9a 9c3d c239 12bd 9753 1b3e 9df2 713c
00000130: b28e 1abd 7c1a 38bc 9373 893b ab1c 313d
00000140: 8dfe 8bbd edc4 85bd 70e1 ecbc 074b 09bd
00000150: 91ba 863d f45d c53c 2fe8 c13d 4f45 f4bc
00000160: c838 b03d ecdf 903c f4ea 9dbb d160 31bb
00000170: 9463 743c 9ecd 993c 44da c5ba 7388 f03d
00000180: 46a5 63bc 94f9 d73c 9fac ba3c ac69 88bd
00000190: eae6 fbbb f418 c43d 09ce 5a3e 02f4 163e
000001a0: 9c90 af3c 4c4b 89bd 3c23 e03c 7cfe 03be
000001b0: 35e7 32bc 4c78 103c c365 973c fc0d 0a3d
000001c0: 4b5e 4bbd 1a5f c9bd 82e6 3bbd 6e5e 82bc
000001d0: beb0 eebd 1c81 09be c686 bebc 7537 403d
0.006643447 -0.03588818 0.04319659 0.26122677 0.18339153 0.04456768 -0.04004339 0.02692223
0.020535499 -0.032019265 -0.029278774 0.15658145 0.006643712 0.061923333 0.0373546 0.06500446
-0.025914336 -0.01826586 -0.058986083 0.03926495 0.044067156 -0.11982797 -0.09316608 0.06006344
0.22594874 -0.030241288 0.12615365 0.19079164 0.037988625 0.08707446 -0.029351307 0.13274163
0.1005869 0.019420072 -0.004338477 -0.016395807 0.12919213 0.03496115 0.13783291 0.02428172
-0.08895824 0.063617505 -0.022731021 0.022470776 0.09779604 0.052001633 0.12909019 0.07303049
0.060739625 -0.048783503 0.052808356 0.076881625 0.027180288 0.095139496 -0.11349484 0.092540234
-0.12488789 0.012815638 0.15608503 0.07064708 0.21807915 -0.2072479 -0.09048163 0.13418037
0.04365068 -0.010590828 0.109530866 0.049467903 -0.09113147 0.1956265 0.022753956 -0.034897175
0.07646713 -0.035699613 0.15168606 0.014767316 -0.03773374 -0.011236783 0.0041946857 0.04324023
-0.06835661 -0.06531701 -0.02891609 -0.033518817 0.065785535 0.024092652 0.09468114 -0.029818205
0.0860458 0.0176849 -0.0048192684 -0.0027065764 0.014916319 0.018774804 -0.0015094955 0.117447756
-0.013894385 0.026364125 0.02278739 -0.0666078 -0.007687439 0.09575072 0.21367659 0.14741519
0.02143126 -0.06703815 0.027360551 -0.12890047 -0.010919382 0.0088177435 0.018481141 0.033704743
-0.04965047 -0.09832592 -0.045874126 -0.015914168 -0.11654805 -0.13428158 -0.023257624 0.046927888

fc2.weight f4 [84, 120]
00000000: f4f4 a9bd 47a1 0a3e b72e e8bb 649a 4e3d
00000010: 290b fe3d 3964 743d 8975 5fbc d95f 87bb
00000020: 270e 0bbe 7646 863d 97a7 a1bd 6908 5c3c
00000030: f995 bb3d c927 94bd 3f9f 1bbe a2fc e3bc
00000040: 1d5b 70bc 6655 a6bc d51c 843d 02f4 61bc
00000050: cd7d 26bd 405a 813c bfef a03d 0117 46bd
00000060: 5cbd e83d 723a 8a3d 4502 d4bb 1ae7 c0bc
00000070: 2405 c43b 5bd7 2ebc 8a6f a93d 613b aebd
00000080: 5137 e2bd 37bb 40bb 904b 453d 79f7 e03c
00000090: 317c 70bd 882a 893d ac4b 193c a825 d13d
000000a0: 2307 943b a6eb 8d3d ecf3 a13c 791e debc
000000b0: 19f9 9ebd 7f28 b33d 498d 39bd 8886 2c3d
000000c0: 4a6a 7fbd f007 813d 7488 623a 884b c93d
000000d0: 55e9 65bd 4cca 623d f1b7 86bc 5a66 44bd
000000e0: 7a12 8cbc 4428 8ebd 9cb2 25bd cdd8 e7bd
000000f0: 1837 4b3d 8604 983d ee1d bc3d 0f5f d8bb
00000100: d550 b03b 96fd 863d dcd8 5b3c c3d3 70bd
00000110: aea9 5b3d 9d6b 11bd 5c39 4b3d c0bc ccbd
00000120: 664b 363d 39a4 50bd 9278 133c 2e8d 093d
00000130: df5e abbd bd44 a13d 33ec 69bd 4527 a03d
00000140: 0eda f73c 2b16 583d 30e4 b43d 24e0 b8bb
00000150: f726 213b 4b65 85bc b31a 0a3d d17b 79bc
00000160: b44c cc3d 1a4a f5bc 8d61 95bd 6061 843d
00000170: 38bf 313c 41ae 88bd 4c5e 0a3e 882b f1bb
00000180: 5204 ae3d 0d02 bc3b 1e2f ecbc 0e91 c1bd
00000190: 1e86 e0bd bb82 853d 1902 12be 5bf9 c63c
000001a0: 8b71 3fbd 818f 88bd 923d de3d 5029 363d
000001b0: e589 b9bd 5a65 57bd e8d6 5dbc c178 96bd
000001c0: 879a 683d 0d20 58bd 1804 aa3b cf95 a33d
000001d0: d021 a13d e7ab 723d 970e fe3c 6e76 d93c
000001e0: 5696 91bd b1b5 6cbd 63f1 5e3b 5743 213d
000001f0: c8e3 943d 5570 50bd 4d4a eebc 7d5d 1e3c
00000200: 3acc 293d 414f 373d 35ba 62bd 5ba6 bebc
00000210: 3af3 e73b d34b 02bd bebe 843c 65d2 fb3c
00000220: 72d3 a73d 9c68 a2bd 659b 20bd ff8c 533d
00000230: 5abc ccbc f5e9 b2bc ac35 a7bc 32e3 94bd
00000240: 5e5b a53d 14a5 34bd a1f9 2f3d 0343 443d
00000250: 3f17 e1bc b9a3 9d3b 116b 91bb 4a61 a53a
00000260: de83 313d 4474 763d 5d71 e53c 235a 653d
00000270: c476 a3bd c4ce b3bc 4f0e 873d b4e1 b53c
00000280: c915 c73d c345 8c3d 7ba7 b1bd 97a2 10bd
00000290: 7549 08bd d547 9a3d 36de 233d b649 af3d
000002a0: 543d 19bd 72d7 8fbd afff 293d 5318 a03c
000002b0: 7e61 00bc 4a88 083d c8cb af3c 7951 99bc
000002c0: 40de a33c e4c8 c3ba f2d1 8b3d f1f1 b0bc
000002d0: ba7b e93d c54a d3bd 7d90 ccbd 9cd7 06bd
000002e0: 1e4e b73c bd12 d7bd 1056 17bd 546e 4e3d
000002f0: 1dd5 8fbd 1cfc 263c 7a64 f53c 027f c7bc
00000300: 7d1c 50bd 0f79 20bd 4e17 f3bc ec31 bd3c
00000310: 76da 12bd aa32 91bd 306d 78bd 859f a43c
00000320: 16d2 9c3b 210e c23b c49e 1b3d ae87 1c3d
00000330: 2716 11bc 29e8 bcbc fda2 693c 35c6 2bbd
00000340: 9c37 56bd 0ba7 15bd 11a3 bdbd e77b 32bb
00000350: f4fb 7a3d ed08 b73d 15fe 8f3d b559 8bbd
00000360: 9dd9 f83c 79dd dbbc a014 a8bd 7708 ab3d
00000370: 5c4c e43c 52f7 b5ba ff57 2c3c 385a 71bd
00000380: f1d1 953d 613e 94bd 318d 35bd 01a7 033d
00000390: 2e1d abbd bbe1 bebb 1e75 1bbc c274 073d
000003a0: 439c 0cbd aa36 f6bd bf8b 5b3c 1736 af3d
000003b0: 95f3 bcbd aad6 babd 2bac e33b 2bb5 4d3d
000003c0: c06c 6fbd 09a0 93bd 9db5 1e3d be70 c53a
000003d0: 920d 61bd dd52 c4bd 59c7 7d3d 2610 dfbc
000003e0: 35ea 013d 197c 03bd 5603 a23d 6397 f13d
000003f0: 7057 93bd b9de 723d 9772 df3d 4880 9d3d
-0.08298674 0.13538085 -0.007085647 0.050440207 0.124044724 0.059665892 -0.013638862 -0.004131299
-0.13579617 0.06556408 -0.07893293 0.0134297395 0.091594644 -0.07234151 -0.15197466 -0.027830426
-0.014670161 -0.020304393 0.06450812 -0.013791086 -0.040647317 0.015790105 0.07858228 -0.048361782
0.113642424 0.06749429 -0.006469997 -0.023547698 0.005982058 -0.010671462 0.082732275 -0.085074194
-0.11045707 -0.0029408464 0.048167765 0.027461754 -0.05871219 0.06697565 0.0093564205 0.102122605
0.0045174523 0.06929712 0.019769631 -0.02711414 -0.07762355 0.087479584 -0.045300756 0.042120486
-0.062357225 0.06300342 0.0008641549 0.098288596 -0.056130726 0.055368707 -0.016445132 -0.047949173
-0.017098654 -0.06941274 -0.04045354 -0.11320648 0.04961309 0.07422738 0.09185396 -0.0066031287
0.0053807297 0.065913364 0.0134184025 -0.0587957 0.053628616 -0.03550302 0.04961525 -0.09996939
0.0445055 -0.050937865 0.009000914 0.033581905 -0.083677046 0.07874439 -0.057110023 0.0781999
0.030255344 0.052755516 0.08832586 -0.005641954 0.0024589875 -0.016283652 0.03371687 -0.015227274
0.099755675 -0.029942561 -0.07293997 0.06463885 0.010848813 -0.06673861 0.13512534 -0.0073599257
0.08496918 0.005737549 -0.028831061 -0.09451495 -0.10963081 0.065190755 -0.14258613 0.024288824
-0.046739142 -0.06667996 0.10851587 0.044472992 -0.090595044 -0.05258689 -0.013540007 -0.07347251
0.056787994 -0.05276494 0.0051884763 0.07987558 0.07867777 0.05924597 0.031012816 0.02654573
-0.071087524 -0.057790462 0.003401839 0.03937086 0.07270008 -0.05088838 -0.029088164 0.009665844
0.04145453 0.044753317 -0.055353362 -0.023272684 0.0070785554 -0.031810593 0.016204234 0.030739972
0.08194627 -0.07930109 -0.039210696 0.051648136 -0.024992157 -0.021840075 -0.020411335 -0.072698966
0.080740675 -0.044102743 0.042962674 0.04791547 -0.027476905 0.004810777 -0.004437812 0.0012617495
0.04333865 0.060169473 0.028008157 0.055994164 -0.07981637 -0.02194918 0.06594526 0.02220235
0.09720952 0.068492435 -0.086745225 -0.035311308 -0.03327318 0.07533232 0.04000684 0.08558981
-0.037412003 -0.07023515 0.041503605 0.019542849 -0.007835744 0.0333331 0.021459475 -0.018715607
0.020003438 -0.0014937189 0.06827153 -0.021599742 0.11400552 -0.103169955 -0.099884965 -0.032920465
0.022376116 -0.10501621 -0.03694731 0.050398186 -0.0702307 0.0101919435 0.029955138 -0.024352554
-0.05080842 -0.03917795 -0.029674198 0.023095094 -0.03585287 -0.070897415 -0.060651004 0.020095596
0.0047857864 0.0059220945 0.037993208 0.03821533 -0.008855379 -0.023059921 0.014260051 -0.04193707
-0.052299127 -0.036536258 -0.09259618 -0.0027234496 0.061275437 0.08937249 0.07030884 -0.0680422
0.030377204 -0.026839005 -0.08207059 0.08351224 0.027868442 -0.0013882911 0.010519027 -0.05892393
0.07315434 -0.0723846 -0.044324104 0.03214169 -0.08355175 -0.005825249 -0.009488372 0.033070333
-0.03432871 -0.12022145 0.013400017 0.08555239 -0.09226147 -0.09122975 0.0069480143 0.050221603
-0.05845332 -0.07208259 0.03874742 0.0015063507 -0.054944582 -0.095861174 0.06195769 -0.02722938
0.031717498 -0.03210077 0.079107925 0.11796453 -0.07194412 0.059294436 0.10910528 0.07690483

fc2.bias f4 [84]
00000000: 46f2 3b3e f181 043e 1cc6 363d a19b 623c
00000010: 7001 0f3e 4c96 763d 2949 0a3e 78b4 40bc
00000020: 4a81 e43d f308 333e 816f 243d 2613 97bd
00000030: 2285 7b3e 05dd eabb 684f 07be decf 5f3e
00000040: 51e4 0a3e d24e 4a3e a81a bcbc 6881 a5bc
00000050: e60c f73d a45a ce3d 7bfb 783d 252a 7b3e
00000060: 46e7 41be 21ba b63e 4c71 943e ed43 1c3c
00000070: c0fc acbc 8228 743d e231 633e f54c 5fbd
00000080: 617d 8a3c 2777 063d 4fc5 073e 0267 9b3e
00000090: f85d 4f3e d3e4 b1bc 6507 b7bc fef1 c23c
000000a0: 14fd 253e 1ca0 383e db03 b63d 9f2c 1abd
000000b0: f324 143d 1c2e 913e 9b1c 213e a91a 923d
000000c0: 625a d9bd 755d 80ba d6b9 3bbe cf8e 97bd
000000d0: d49c 753d 0111 93bd c31d 72bd bc9f b6bb
000000e0: 4030 8bbd 53fa 5fbe 5a76 b03d c169 d73d
000000f0: 6c4c 1bba 674f efbd cd9e 8939 bdb0 a13d
00000100: ea34 153d a2c1 3cbd 4f0f b9bc 66a4 173d
00000110: a277 29bd e241 3b3e 869f 45bc cf30 25bb
00000120: 7b56 723d 634e 7d3d 5008 bc3d 8a05 523e
00000130: d720 993e a896 db3e 7bcf a0bc c18a bfbb
00000140: 0eb9 ff3c 98cd 7d3d 791a 75bc 8691 1a3e
0.18354139 0.12940194 0.044622526 0.01383105 0.13965392 0.060201928 0.13504471 -0.011761777
0.111574724 0.17483883 0.0401454 -0.07376699 0.24562505 -0.007167461 -0.13213885 0.21856639
0.13563658 0.1975663 -0.02296193 -0.020203307 0.12063007 0.10075882 0.060786705 0.24527796
-0.1893588 0.3568888 0.2899269 0.009537679 -0.021116614 0.059608944 0.22186998 -0.05451675
0.016905488 0.032828476 0.13258861 0.30352026 0.2025069 -0.021715557 -0.022342393 0.023797031
0.16209823 0.18029827 0.08887454 -0.03764021 0.03616805 0.2835549 0.15733568 0.07133991
-0.10612942 -0.0009793477 -0.1833261 -0.074002855 0.059964016 -0.071809776 -0.059110414 -0.005573241
-0.06796312 -0.21872835 0.08616324 0.10518218 -0.00059241685 -0.11685067 0.00026248992 0.07895038
0.036427416 -0.0460831 -0.022590308 0.037022017 -0.041373856 0.18286851 -0.012061959 -0.0025206094
0.059164505 0.061842334 0.09181273 0.20509925 0.29907867 0.4288838 -0.019630184 -0.005845398
0.03121617 0.061963648 -0.014959925 0.15094575

fc3.weight f4 [10, 84]
00000000: 749f 0dbe acf8 1ebe 5b40 0a3e 5ee3 213d
00000010: ee2e 723e 4864 2abd 90e6 143c 8598 693e
00000020: ebb3 b6bd 2045 11bd 797e 413e 0447 a8bd
00000030: 6d6f 06be e743 9e3c 76c8 353e df26 8d3d
00000040: 88a6 17be cfcc 243d a285 e5bd b721 103e
00000050: d113 2dbd 9752 e5bb fbca 0a3e c607 fdbd
00000060: a670 2d3e 3ff9 1fbe 54f1 26be d8b8 ae3d
00000070: f599 38bd 775c 3fbd 194f 13be d6fb 7f3c
00000080: c5e1 64be da4c e83d 1fec c5bd 934c 51be
00000090: 7dfb a6b9 1f71 233e f8f4 893c 142b 8fbd
000000a0: 14ef 8e3d 4496 0a3b ca8b 38be da5d 0ebd
000000b0: a944 c13d 3ee1 51be e926 473e d518 2f3e
000000c0: 72bd efbd 0217 2abd 413c 843c b1cb acbd
000000d0: 5a63 a4bd 585a fc3c 0c5c bd3c 8c0a 6d3e
000000e0: 4e14 6e3d 1222 453e 7707 c3bd 4ac1 5d3e
000000f0: 8ba6 2a3e 9904 223a c8d7 133e b753 0bbe
00000100: 7431 28be 0c21 8fbd 6c62 0ebe 650a 173e
00000110: f022 c33d e18a 613c 548d 38bd 86c6 dcbd
00000120: 7b4b cebd 2ab4 6bbd b725 7ebd 9634 24be
00000130: 26f3 a0bd fd0c c73e 9450 db3d 2eff b0bd
00000140: d6bd f53d b94c d43d fc80 333e 8e2e 943e
00000150: 768f 64be aa10 dc3c b4f0 6c3d dab8 a73c
00000160: b6d7 91be e604 db3d fcc6 f4bd d1e8 373e
00000170: 5e52 dbbd a478 08be d76e cc3d 27dd 153e
00000180: daac 54be 405a babd 3b33 fb3c c65b 86bd
00000190: c612 c33d 8cd7 23be f559 bf3c cb22 8e3d
000001a0: e7d7 8fbe b329 a83d b49e 583e f032 2cbe
000001b0: 3490 893e 509b 46be d5e9 04be 3db1 763d
000001c0: 0e9c 353e 8be1 fe3d 093c cdbd 22bc 273e
000001d0: b5e6 093e 09d0 0bbe d72f fdbd 0e1a 3e3d
000001e0: b13e 91be 0906 f83d 054d c0bc dc2b 82bd
000001f0: f0b7 06be 7480 93bd 7e78 84bd 55a4 16be
00000200: ab6f 0c3e e8ba 82be 3af3 cc3d c66f 0ebe
00000210: 0a4e 153e 9b4e d83d 6e2e 263e 516d ebbc
00000220: 9be1 08be 14c7 93bc d74c 553d 0c2d 5bbc
00000230: b607 033e a3fd b53c 529a 0b3e d5f4 a63c
00000240: 4e71 6d3d b135 c2bd f459 9c3e d8f0 81bd
00000250: 4729 acbd f675 393e 0b8f 113e f669 ec3d
00000260: cd5d 033e 52fd 6fbd 1fa0 adbd 1e9a e03d
00000270: 3fc8 663e 5894 32be 6ca6 41bc b5de 273d
00000280: 061f 82be cb62 87be 8226 273e b06c 5f3d
00000290: 18c7 99bc ffd2 003e 4970 65bb f7ad 49bd
000002a0: 87ac 823e 79f3 483c f6e3 88bd b804 39bc
000002b0: c670 823d e5d7 e23d 29a4 513e 2990 bdbd
000002c0: 97b3 6abd 9af0 d13c ecd5 9cbd 3586 2bbd
000002d0: 90b7 553e b7d6 ce3d 7a12 f9bb 29f8 13be
000002e0: cbba 32bd 0263 663e 4af9 973d b9ac 0cbb
000002f0: 4ac8 b6bd fc2b 09be f726 39bd f365 1f3e
00000300: cb61 3dbe 4029 7a3c a4e7 22bc 559f 1cbe
00000310: 1267 863d 051d a03d 5ca6 5b3e 446b 38be
00000320: cf5e 553d 006c 03bd c306 4a3d c31c 39be
00000330: 0b61 923d 8403 983d c62c 533e 2c69 ddbb
00000340: ca39 cc3b 905a 523e 1f47 c5bd ab62 61bd
00000350: 32b5 22bd 7def 573e 9343 933d cae9 f83d
00000360: 09c6 b8bc 2d60 173a 6edb 94bd c691 ebbc
00000370: 4b17 c8bd dfa3 86bd 7002 7bbe 1837 f13c
00000380: d093 983d 1033 bebc ea75 e3bd 9693 02be
00000390: 038d 80bb 6b88 9d3d 53d5 cabd 0bb3 033c
000003a0: 1f8a c4bd d1c5 fb3d 22f4 393e 7f7a dabd
000003b0: da7b 993d 4586 213c 1e71 fa3d c2a3 94bc
000003c0: ef40 cabd d928 c63d 6997 90bd e2b5 083e
000003d0: 1d17 50bd b8e7 573e df28 1a3d d350 edbd
000003e0: 1845 a3bd 6d22 92bd 28be 70bd a124 8c3e
000003f0: 0059 b63d d580 b63d f321 8dbd 2d64 7a3d
-0.13830358 -0.15524548 0.13501112 0.039523475 0.23650715 -0.041599542 0.0090881735 0.22812088
-0.089210354 -0.035466313 0.18895902 -0.0821667 -0.13128443 0.019319488 0.17752251 0.0689218
-0.1480962 0.040234383 -0.11207129 0.14075361 -0.042255227 -0.006998371 0.13553993 -0.12354998
0.16937503 -0.15622424 -0.16302997 0.0853135 -0.0450687 -0.04671904 -0.14385642 0.015624007
-0.22351749 0.11342783 -0.09664177 -0.20439367 -0.0003184936 0.15961121 0.016840443 -0.069906384
0.06979194 0.0021146694 -0.18022075 -0.034757473 0.09436924 -0.2049608 0.19448437 0.17099316
-0.11706056 -0.04152585 0.016142013 -0.084372886 -0.08026762 0.030804798 0.02311518 0.23148555
0.058124833 0.19251278 -0.09522908 0.21655765 0.16665094 0.00061804947 0.14437783 -0.13606153
-0.16425115 -0.06988725 -0.13904732 0.14750059 0.09528148 0.0137660215 -0.045056656 -0.10780053
-0.100729905 -0.057544865 -0.062047686 -0.16035685 -0.07858877 0.38877097 0.107087284 -0.08642422
0.11999099 0.10366196 0.17529672 0.28941768 -0.22320351 0.026863415 0.05784674 0.020473886
-0.28484887 0.10694294 -0.11952016 0.17959906 -0.1070907 -0.13327271 0.099820785 0.14635144
-0.20769063 -0.09099245 0.030664077 -0.06560473 0.09525065 -0.16000193 0.023358325 0.0694023
-0.28094408 0.082110785 0.2115429 -0.16816306 0.2686783 -0.19395185 -0.12979825 0.06022762
0.17735311 0.12445363 -0.100212164 0.1638036 0.13466914 -0.13653578 -0.1236264 0.046411566
-0.28368142 0.12110526 -0.023474226 -0.06356022 -0.13156104 -0.07202235 -0.064682946 -0.14711125
0.13714473 -0.25533223 0.10007329 -0.13909826 0.14580551 0.10561868 0.16228649 -0.02873865
-0.13367312 -0.018039264 0.052075233 -0.013377439 0.1279591 0.02221567 0.13633087 0.020380417
0.057969384 -0.09482897 0.3053738 -0.063447654 -0.084063105 0.18111405 0.14214723 0.11543648
0.12828751 -0.058591194 -0.08477806 0.109668955 0.22537325 -0.17439401 -0.011819463 0.040983874
-0.25414294 -0.2644256 0.16323283 0.05454701 -0.018771693 0.12580489 -0.0035009554 -0.04923817
0.25522253 0.01226508 -0.06684105 -0.011292629 0.06369166 0.11076335 0.20472778 -0.09256012
-0.057300176 0.025627423 -0.0765799 -0.041876037 0.20870805 0.10099547 -0.0076010795 -0.14450134
-0.04363517 0.22498706 0.07420595 -0.0021465255 -0.08924921 -0.13395685 -0.045203175 0.15566234
-0.18494336 0.015268624 -0.009942923 -0.15295155 0.06562628 0.07818035 0.2145018 -0.18009669
0.05209237 -0.03208542 0.049322855 -0.18077378 0.07147416 0.074225456 0.20622548 -0.006756922
0.006232475 0.2054236 -0.09632706 -0.055025738 -0.039723583 0.21087451 0.07190623 0.12153967
-0.022555368 0.0005774524 -0.072684154 -0.028756034 -0.09770068 -0.06574225 -0.24512649 0.029445216
0.07450068 -0.023217708 -0.11106475 -0.12751612 -0.00392306 0.07692035 -0.099039696 0.008038293
-0.09596657 0.1229359 0.18159536 -0.106678955 0.07494326 0.0098586725 0.12228607 -0.018144492
-0.09875666 0.0967576 -0.07060129 0.13350633 -0.050803293 0.21084487 0.037636634 -0.115876816
-0.07972163 -0.071354724 -0.058775097 0.27371696 0.08903694 0.089112915 -0.06891241 0.06113069

fc3.bias f4 [10]
00000000: 298a 6dbe 2459 27bf 256f a23d d6be c23e
00000010: 4bef df3e b7c2 7dbd 9965 d43d ac17 9fbe
00000020: 4dc6 b93e b8e2 b8be
-0.23197235 -0.6537039 0.079313554 0.3803622 0.43737254 -0.061953273 0.10370941 -0.31072748
0.36284104 -0.36110473
